pytorch/net_params.pkl (torch_old, 902 bytes, 3 tensors)

0.weight f4 [10, 1]
0	0x3e799d90	0.24376512
1	0x3fabfe80	1.3437042
2	0xbf911c8f	-1.133684
3	0xbf2dd178	-0.6789775
4	0x3e552bbf	0.20817469
5	0x3f57cae0	0.8429394
6	0xbe49a8e8	-0.19693339
7	0xbf211f52	-0.62938416
8	0x3e87002c	0.2636732
9	0x3ece8280	0.4033394

0.bias f4 [10]
0	0xbe87ae90	-0.26500368
1	0xbe8b13d4	-0.27163565
2	0xbe88898d	-0.26667443
3	0xbf4aff14	-0.7929547
4	0x3ea62d80	0.3245659
5	0xbf7f2f7e	-0.9968184
6	0x3dffc208	0.124881804
7	0x3ef5d8ce	0.4801697
8	0xbf306f1e	-0.6891955
9	0xbf6e858e	-0.9317254

2.weight f4 [1, 10]
0	0xbe859fc1	-0.26098445
1	0x3f5c874f	0.86143965
2	0x3f6ab3cc	0.916806
3	0x3e3f477a	0.1867961
4	0xbdf684ac	-0.12037024
5	0x3dba8aa0	0.09108472
6	0x3d6eb7c9	0.05828074
7	0x3d7a05a8	0.06104055
8	0xbe7011a2	-0.23444226
9	0xbe386d03	-0.18010335
